recipes/cad_icassp_2026/baseline/outputs/cadenza_data.train.mlp_scalar_features.pth (torch, 30271 bytes, 7 tensors)

mlp.0.weight f4 [64, 3]
0	0x3c2492c5	0.010044758
1	0xbea59753	-0.32342014
2	0x3d61beec	0.055113718
3	0xbf1c44df	-0.6104259
4	0x3e96ee4e	0.29478687
5	0x3ec868af	0.39142367
6	0x3ee08700	0.43852997
7	0x3e629a7c	0.22129244
8	0x3cae70c9	0.021294015
9	0xbe877e5f	-0.264636
10	0x3dda558b	0.10660847
11	0xbddfb9cc	-0.1092411
12	0xbeb76c33	-0.35824737
13	0xbe4ccb0d	-0.19999333
14	0x3d9bd060	0.07608104
15	0x3eeb1c60	0.45920086
16	0xbe30b637	-0.1725701
17	0x3d36efa6	0.04466214
18	0x3ecc3e8a	0.39891464
19	0xbe98f00d	-0.29870644
20	0xbd1f7ebc	-0.038939223
21	0xbea9f503	-0.33194742
22	0xbede1b9b	-0.43380436
23	0x3e9472bc	0.28993785
24	0x3eb40e3f	0.3516712
25	0x3e9c0fe0	0.30480862
26	0xbebcb9d8	-0.36860538
27	0x3ed87bf0	0.42282057
28	0xbe598a90	-0.21244264
29	0x3e866a05	0.2625276
30	0xbe6c459e	-0.23073432
31	0xbf0d383c	-0.5516393
32	0x3afaf36a	0.0019146029
33	0x3c81d91a	0.015850592
34	0xbd9f3922	-0.07774569
35	0xbdaed299	-0.08536262
36	0x3dc98b49	0.0984102
37	0xbf1d2ec3	-0.6139948
38	0xbeb8e3b1	-0.36111215
39	0x3ee86211	0.4538732
40	0xbf462def	-0.7741384
41	0xbea43e3b	-0.32078728
42	0x3e47d53c	0.19514936
43	0xbdeb9527	-0.11503058
44	0x3e583a9a	0.21116105
45	0x3f005103	0.50123614
46	0xbe7cc276	-0.24683556
47	0xbdd78ff3	-0.10525503
48	0xbd932c2f	-0.07186162
49	0xbf1b397c	-0.6063459
50	0xbdfe7838	-0.12425274
51	0x3e4def26	0.20110759
52	0x3e583772	0.211149
53	0x3dfc027c	0.12305161
54	0x3e76bc04	0.2409516
55	0xbf358f5f	-0.7092189
56	0xbdff495f	-0.12465166
57	0xbee0f61d	-0.4393777
58	0x3f495929	0.7865167
59	0x3f0709bb	0.5274922
60	0xbe2bcc97	-0.16777264
61	0xbd79c068	-0.06097451
62	0x3ea742a5	0.32668033
63	0x3d3899f7	0.045068707
64	0xbf0cbda2	-0.54976857
65	0xbe8abc5c	-0.27096832
66	0xbec25733	-0.37957153
67	0xbec3c476	-0.38235825
68	0x3ea2d4fb	0.31803116
69	0xbebea7a9	-0.3723729
70	0xbf050940	-0.5196724
71	0xbdc862bc	-0.09784457
72	0x3de1e932	0.110308066
73	0x3f2ce7f3	0.67541426
74	0x3ee90cce	0.45517582
75	0xbd5b23f3	-0.05350108
76	0x3e4f0162	0.20215371
77	0x3eaa1daf	0.33225772
78	0x3cae0e84	0.021247156
79	0xbd650a0f	-0.055917796
80	0x3d989f00	0.07452202
81	0x3e2ffe41	0.17186834
82	0x3ec36514	0.38163054
83	0xbe85a7df	-0.26104638
84	0xbf12941c	-0.57257247
85	0xbe8e8479	-0.27835444
86	0x3e81b23e	0.253313
87	0xbf21dc84	-0.63227105
88	0x3d9b440d	0.07581339
89	0x3ec52b06	0.38509387
90	0x3edb57af	0.42840335
91	0x3f397bfc	0.7245481
92	0xbf01e490	-0.50739384
93	0xbe3ae41b	-0.18251078
94	0xbedbcdee	-0.4293055
95	0xbec9f4d0	-0.3944459
96	0xbedc8e80	-0.4307747
97	0xbdc1bf23	-0.094602846
98	0xbe8e4a3a	-0.27791005
99	0x3e0c94ab	0.13728587
100	0xbf08ac8e	-0.533883
101	0x3ed32c97	0.41244957
102	0xbe2da3c9	-0.1695701
103	0x3ea87fdd	0.32910052
104	0xbe1e887a	-0.15481749
105	0xbef0b799	-0.47015074
106	0x3f01643a	0.5054356
107	0x3ea9e36a	0.33181316
108	0x3ed49b57	0.41524765
109	0x3f2be9b8	0.671535
110	0x3f066fe1	0.52514464
111	0xbe567af8	-0.20945346
112	0x3e8a203e	0.26977724
113	0x3e5770af	0.21039079
114	0x3d47b034	0.048752025
115	0x3edf2383	0.4358178
116	0xbceada15	-0.028668443
117	0x3dbe759d	0.09299777
118	0xbebc88ff	-0.3682327
119	0xbda6a45c	-0.08136818
120	0x3ee05b3b	0.43819603
121	0x3f5a3e00	0.85250854
122	0xbb8fdad1	-0.0043900986
123	0xbf2368ea	-0.6383196
124	0xbe805643	-0.25065812
125	0x3ee531ee	0.44764656
126	0xbf116d4a	-0.56807387
127	0x3d7b062b	0.06128518
128	0xbecf3d2b	-0.40476355
129	0x3d37334d	0.04472666
130	0xbf04f3d7	-0.5193457
131	0x3e857f6a	0.26073772
132	0xbe6af0fc	-0.2294349
133	0xbf0a8cae	-0.5412091
134	0xbe7c4636	-0.24636158
135	0xbe1b3d57	-0.15160118
136	0xbf2c5106	-0.6731113
137	0x3eb4a690	0.35283327
138	0x3e7e6ce5	0.24846227
139	0xbf3b30a4	-0.73121095
140	0x3df306f1	0.11866558
141	0x3eb13be5	0.34616008
142	0x3da4fc09	0.080558844
143	0x3d8a62cb	0.067571245
144	0x3efd3a98	0.49458766
145	0xbf317817	-0.6932387
146	0xbd9ef115	-0.077608265
147	0x3e862186	0.2619745
148	0xbe47a424	-0.19496208
149	0x3e6b3a73	0.22971515
150	0xbf1424f0	-0.5786886
151	0x3ecd2946	0.40070552
152	0xbdd18d4f	-0.102320306
153	0x3e7d3b71	0.24729706
154	0xbd46b552	-0.048512764
155	0xbea81ceb	-0.32834563
156	0xbedd2578	-0.4319265
157	0x3cfd602b	0.030929646
158	0xbdba8481	-0.09107304
159	0xbc87665f	-0.016528307
160	0x3e05fa6c	0.1308381
161	0x3cbbb265	0.022912214
162	0xbf107d19	-0.56440884
163	0xbf38b0cc	-0.7214477
164	0x3ef7492f	0.48298022
165	0x3e429ca5	0.19005068
166	0x3f3e4e71	0.7433844
167	0xbeb3f756	-0.3514964
168	0xbebd1dd5	-0.36936823
169	0xbf3518a1	-0.70740706
170	0x3e2b0b29	0.16703476
171	0x3dcb9c98	0.09941977
172	0xbf263633	-0.6492645
173	0x3e70fce0	0.23533964
174	0x3e8874c4	0.26651585
175	0xbed480a5	-0.41504398
176	0x3e1cb659	0.15303935
177	0xbeec7ea6	-0.46190375
178	0xbec869a7	-0.39143106
179	0xbdbf92fb	-0.09354206
180	0x3ee84c0f	0.45370528
181	0x3f1ae80e	0.6051034
182	0xbec7b499	-0.39004973
183	0x3f04ba8b	0.5184714
184	0xbf3cab72	-0.73699105
185	0xbdf027d1	-0.117263444
186	0xbee7ad46	-0.45249385
187	0xbeae35cc	-0.3402542
188	0x3e6962b7	0.22791563
189	0x3c1658ee	0.009176476
190	0x3e88b121	0.2669764
191	0xbeaf02a4	-0.34181702

mlp.0.bias f4 [64]
0	0x3d3034ab	0.043018978
1	0xbdcf43e8	-0.10120374
2	0xbaa5d6c6	-0.0012652508
3	0x3efc376b	0.4926103
4	0xbdc1779f	-0.09446644
5	0x3ec9f539	0.39444903
6	0xbf0b971c	-0.5452745
7	0xbc864f75	-0.01639531
8	0xbee59d10	-0.44846392
9	0xbef9a074	-0.4875523
10	0x3f3eabfb	0.7448117
11	0x3e77941e	0.24177596
12	0x3eb39e2e	0.3508162
13	0xbdc1216c	-0.09430203
14	0x3ec8c144	0.3920995
15	0xbe9362ba	-0.2878626
16	0x3ec704b3	0.38870773
17	0xbeca5210	-0.39515734
18	0x3e8438fb	0.25824723
19	0x3deebdc4	0.11657289
20	0xbf1e6f07	-0.61888164
21	0xbe468539	-0.19386758
22	0xbe2ed64d	-0.17073937
23	0x3ea44edb	0.32091412
24	0xbeb7a020	-0.35864353
25	0xbf19a0b1	-0.6001082
26	0xbf17565f	-0.59116167
27	0xbf3a1b40	-0.7269783
28	0x3e10bac3	0.14133744
29	0x3d9dc36b	0.07703289
30	0xbeb10b65	-0.34579006
31	0xbf11e74c	-0.56993556
32	0x3f18a65a	0.5962883
33	0x3eb6047c	0.35550296
34	0xbea773c2	-0.32705504
35	0x3e72d6c4	0.23714739
36	0xbd9ae767	-0.07563668
37	0xbe2a830b	-0.16651551
38	0x3d1bb9b1	0.038018886
39	0x3dd020ec	0.10162529
40	0xbda3dc93	-0.080010556
41	0x3d930cce	0.07180177
42	0x3e485213	0.19562559
43	0x3ef27a23	0.47358808
44	0xbc4bd1dd	-0.012440172
45	0x3f1b0c0c	0.6056526
46	0x3e646f76	0.22308144
47	0xbe995927	-0.2995083
48	0xbf06e219	-0.5268875
49	0xbce553ed	-0.02799412
50	0xbec69ec1	-0.38792995
51	0x3e918948	0.2842505
52	0x3ebc10ee	0.36731666
53	0x3e7b9c55	0.24571355
54	0x3eb7f2c3	0.359274
55	0x3dff2d2d	0.124597885
56	0xbd632a20	-0.055460095
57	0xbee3f5f2	-0.4452358
58	0x3e34cf99	0.17657317
59	0xbdcdc1ef	-0.100467555
60	0x3e3c2fc6	0.18377599
61	0x3efe07c2	0.49615294
62	0x3e91fca6	0.28513068
63	0xbf0b9fa0	-0.54540443

mlp.2.weight f4 [64, 64]
0	0x3c262ec3	0.010142985
1	0x3b37a4a0	0.0028021708
2	0xbd440c20	-0.047863126
3	0xbc665323	-0.014057907
4	0x3d2bbbfb	0.04192732
5	0xbcf0f492	-0.029413495
6	0xbe3c57ed	-0.18392916
7	0xbdb3cb49	-0.08779008
8	0x3e06cccb	0.1316406
9	0xbcbc1f93	-0.022964275
10	0xbeac5f81	-0.33666614
11	0x3c9288fa	0.017887581
12	0xbd79bb0a	-0.06096939
13	0xbe014ab7	-0.12626158
14	0xbd1cf7db	-0.03832231
15	0xbd43642e	-0.04770296
16	0xbd0dc31f	-0.03460991
17	0x3e1269fa	0.1429824
18	0xbe44335f	-0.19160222
19	0x3e13e5db	0.14443152
20	0x3dee2169	0.11627466
21	0xbdfd3733	-0.12364044
22	0xbdded7e9	-0.10881025
23	0xbd18a9c4	-0.037271276
24	0x3deae478	0.11469358
25	0xbbcd3d8a	-0.0062634395
26	0x3e5e44f2	0.21705988
27	0xbd8fcaef	-0.070211284
28	0x3cac3c7d	0.021024937
29	0xbc4cde41	-0.012504161
30	0x3dd921f2	0.10602178
31	0x3c285cb8	0.010276012
32	0x3daff95d	0.08592484
33	0xbbb3c75c	-0.005486412
34	0xbaaa88fd	-0.0013010796
35	0x3df958a2	0.121751085
36	0x3e24c01f	0.16088913
37	0xbc9d48d5	-0.019199768
38	0x3e3b5eb5	0.18297847
39	0x3ca49d70	0.020094603
40	0x3e89ad95	0.26890245
41	0xbdb3eb59	-0.087851234
42	0xbd631ca3	-0.055447232
43	0x3c957d05	0.01824809
44	0xbd4f8efd	-0.050673474
45	0xbda91f56	-0.0825793
46	0xbdfafd5e	-0.12255357
47	0xbc2d1b3e	-0.010565577
48	0xbe719188	-0.23590672
49	0x3d8e572d	0.06950221
50	0xbda09d8c	-0.0784255
51	0x3d3fdfdb	0.046844345
52	0xbd7063dc	-0.058688983
53	0x3df858e7	0.12126332
54	0xbde301d0	-0.1108433
55	0x3d900cfc	0.070337266
56	0xbe37343a	-0.17891017
57	0xbde3d3df	-0.111243956
58	0xbe14fe67	-0.14550172
59	0xbe201da0	-0.15636301
60	0x3d3fa718	0.046790212
61	0xbd3de203	-0.04635812
62	0xbcacd132	-0.021095846
63	0x3dad2903	0.08455088
64	0xbe3ba8e5	-0.18326147
65	0xbd8c563f	-0.06852388
66	0x3c6e1783	0.014531973
67	0x3d462895	0.048378546
68	0xbca4170d	-0.020030523
69	0x3dd1ffd4	0.102538735
70	0xbdc1ec8f	-0.09468948
71	0xbbaf2463	-0.005344914
72	0x3c2f9dbc	0.010718759
73	0xbdc6cff8	-0.09707636
74	0xbe90fccd	-0.28317872
75	0x3dbd756f	0.09250914
76	0xbdb89b96	-0.09014051
77	0xbddb48c1	-0.10707236
78	0x3d4261a3	0.047456395
79	0x3d6bc852	0.057564087
80	0xbdd61116	-0.10452478
81	0xbcee5e3a	-0.029097665
82	0xbda4c729	-0.08045799
83	0x3e0e9ddf	0.1392741
84	0x3dca4d4b	0.09878024
85	0xbc804fb2	-0.015663002
86	0xbdc0b979	-0.09410376
87	0xbe342c4e	-0.17595026
88	0x3cbb22ed	0.022843802
89	0x3df859c5	0.12126497
90	0x3e2bf164	0.16791302
91	0xbd217ba4	-0.039424554
92	0xbde47e20	-0.11156869
93	0x3d7a3a59	0.0610908
94	0x3e478104	0.1948281
95	0xbd399dc3	-0.04531647
96	0xbb890758	-0.0041817836
97	0x3d954ef4	0.0729045
98	0xbd19c002	-0.03753663
99	0x3d84e097	0.064881496
100	0x3d829335	0.06375734
101	0x3cbd072f	0.023074714
102	0x3e313e7c	0.17308992
103	0xbd66e03d	-0.056366194
104	0x3eb8af79	0.36071375
105	0x3c86b373	0.01644299
106	0xbc2d6133	-0.010582256
107	0x3c1a68c3	0.009424391
108	0xbd22affc	-0.039718613
109	0xbe10b6db	-0.14132254
110	0xbe3a0a73	-0.18168049
111	0xbdc97650	-0.098370194
112	0xbe0823bf	-0.13294886
113	0x3e016c87	0.12639056
114	0x3e126ea2	0.14300016
115	0x3e1742d1	0.14771582
116	0x3d906e42	0.0705228
117	0x3d6751b4	0.056474403
118	0xbd969d55	-0.073542275
119	0x3d9788a1	0.07399107
120	0xbe6f721d	-0.23383375
121	0x3d943a81	0.07237721
122	0xbe135373	-0.14387302
123	0xbd9b92a0	-0.07596326
124	0x3d6ea431	0.058262054
125	0xbe31b185	-0.17352875
126	0xbdd37f43	-0.103270076
127	0xbd7efc8a	-0.06225256
128	0x3dc5b2db	0.096532546
129	0x3d7bf71b	0.061514955
130	0x3cd3078e	0.025760438
131	0x3d1775d5	0.036977608
132	0xbd4ce121	-0.050019387
133	0x3dbe7fc2	0.093017116
134	0xbd92aaf3	-0.07161512
135	0x3c87e9cf	0.01659098
136	0xbdbfcacf	-0.093648545
137	0xbc8915b3	-0.01673398
138	0xbc551f00	-0.013007879
139	0x3d9acc85	0.0755854
140	0xbc8edf56	-0.01744048
141	0xbb64b4fa	-0.003489791
142	0x3b621767	0.0034498812
143	0x3c6590ee	0.014011605
144	0x3e15ad15	0.14616807
145	0x3ba30a0e	0.004975564
146	0xbd01c364	-0.03168048
147	0xbdf23a89	-0.11827571
148	0x3d88bf8c	0.0667716
149	0xbd17cc7e	-0.037060253
150	0x3cf253a9	0.029580908
151	0x3e38fa52	0.1806424
152	0x3d995c43	0.07488301
153	0xbb6efbd6	-0.0036466024
154	0xbd772f55	-0.060347874
155	0xbca55afc	-0.020184986
156	0xbd89d47f	-0.067299835
157	0xbe03830f	-0.12842964
158	0xbdd26ccf	-0.1027466
159	0xbd0e9762	-0.03481234
160	0x3d8a3880	0.06749058
161	0x3d7149d6	0.058908306
162	0x3d12ef58	0.035872787
163	0x3cd8dd0e	0.026472595
164	0xbdea145e	-0.11429666
165	0xbd34fac7	-0.044184472
166	0xbdf3ca26	-0.11903791
167	0x3e21a423	0.1578527
168	0xbe57ad3a	-0.21062174
169	0xbde5d021	-0.11221338
170	0x3d000f1e	0.031264417
171	0xbbcd76f3	-0.0062702834
172	0xbd0bff99	-0.034179304
173	0xbde34fe8	-0.11099225
174	0x3dff4d19	0.12465877
175	0x3b4d2875	0.0031304632
176	0xbdeded6e	-0.11617552
177	0x3d624789	0.055244002
178	0xbcc3d7c7	-0.023906602
179	0xbcfb4350	-0.030671746
180	0xbd789d5e	-0.060696952
181	0xbd720373	-0.05908532
182	0x3c22d2f8	0.009937994
183	0xbc9b7088	-0.018974558
184	0x3cac2425	0.021013329
185	0xbd66c1ad	-0.056337047
186	0x3d251fe1	0.040313605
187	0xbdae2dca	-0.08504827
188	0x3ac2ecb0	0.0014871564
189	0x3da94cf4	0.08266631
190	0x3cf4039a	0.029786874
191	0x3de5a2c7	0.11212688
192	0xbe45d30e	-0.19318792
193	0x3ca5aafc	0.020223133
194	0x3d997c29	0.07494385
195	0xbd9c97ba	-0.07646127
196	0xbdc10457	-0.09424656
197	0xbc4fc448	-0.012681074
198	0xbe50ee78	-0.20403469
199	0xbd2c16d1	-0.042013947
200	0xbdd7cfd6	-0.105376884
201	0xbd7e7dd7	-0.06213173
202	0xbedef194	-0.43543684
203	0xbe22b08e	-0.15887663
204	0xbd416532	-0.047215648
205	0xbe706359	-0.23475398
206	0x3da4f21c	0.08053991
207	0xbe945fe6	-0.28979415
208	0xbe572c9e	-0.21013114
209	0xbd3da78e	-0.04630237
210	0xbec08738	-0.37603164
211	0x3d2e5aa2	0.042566903
212	0x3d0c6934	0.034280017
213	0xbd604f9c	-0.05476342
214	0x3dadd93f	0.08488702
215	0xbe2f8bd1	-0.1714318
216	0x3da021d6	0.07818954
217	0xbd9ac2d6	-0.07556693
218	0xbe2876c7	-0.1645156
219	0x3c0fa4af	0.008767291
220	0x3c0e58a8	0.0086881295
221	0xbd253f55	-0.0403436
222	0x3da4bfc8	0.08044392
223	0xbe05bf49	-0.13061251
224	0xbc18bac0	-0.009321868
225	0xbda944a8	-0.08265048
226	0xbca2cace	-0.019872095
227	0x3d7c51a3	0.061601292
228	0x3d6b2e54	0.05741723
229	0x3d2af13c	0.041733965
230	0x3e6a11b9	0.22858323
231	0xbd4e5bc0	-0.05038047
232	0x3e3ff2e9	0.18745007
233	0xbde08cb6	-0.109643385
234	0x3dc84666	0.097790524
235	0x3d6471a8	0.055772454
236	0xbe5c96cb	-0.21541898
237	0x3d61882c	0.055061504
238	0xbd3597d1	-0.044334237
239	0xbe020802	-0.12698367
240	0xba04b3ae	-0.0005062175
241	0xbd890501	-0.066904075
242	0xbe1a5c13	-0.15074186
243	0xbddd5c66	-0.10808639
244	0xbd403e79	-0.04693458
245	0x3d361ebd	0.044462908
246	0xbe1fe0df	-0.15613125
247	0x3d84030f	0.06445896
248	0xbe3617af	-0.17782472
249	0xbe344b32	-0.1760681
250	0xbd57528c	-0.052568957
251	0xbdca8b0f	-0.098898046
252	0x3da5c21b	0.08093663
253	0xbe7d9da8	-0.24767172
254	0x3d2fb1f0	0.042894304
255	0xbdadb3fe	-0.084815964

mlp.2.bias f4 [64]
0	0x3dcf0158	0.10107678
1	0x3dbe4835	0.09291116
2	0x3de9dda4	0.11419228
3	0x3d66d48e	0.05635505
4	0x3cfb8409	0.030702608
5	0x3d8310d8	0.06399697
6	0xbd4b942a	-0.049701847
7	0xbd840a1f	-0.06447243
8	0x3cf9be0c	0.03048613
9	0x3d0a0e02	0.033704765
10	0xbdbcf3f8	-0.09226221
11	0xbdce0fd4	-0.10061613
12	0xbe0c6e54	-0.13713962
13	0x3d9d2fb2	0.07675113
14	0x3e0cb377	0.13740335
15	0xbdc6942a	-0.09696229
16	0x3d6c3587	0.057668235
17	0xbb7f5839	-0.0038962497
18	0xbdb8e8a7	-0.0902875
19	0x3d877970	0.06614959
20	0xbd93a676	-0.07209484
21	0x3dc7b3f1	0.09751118
22	0xbe2f09a6	-0.17093524
23	0x3e12235a	0.14271298
24	0xbd49bf0b	-0.04925446
25	0xbdb9d43f	-0.09073686
26	0x3cbc44c5	0.02298201
27	0x3d5b1766	0.05348911
28	0xbccfde33	-0.025374508
29	0x3d22cd80	0.03974676
30	0xbd5b22b3	-0.05349989
31	0x3db11078	0.08645719
32	0x3c163a81	0.009169222
33	0xbd44d2bf	-0.048052546
34	0xbce44bfd	-0.027868265
35	0x3e3409ac	0.17581815
36	0x3d13ce14	0.036085203
37	0x3ca75726	0.020427298
38	0xbe093d58	-0.13402307
39	0xbd7c5f5a	-0.06161437
40	0xbd19f556	-0.037587486
41	0x3dcb1cf6	0.09917633
42	0x3e291f19	0.16515769
43	0xbdb69528	-0.08915168
44	0x3d837f59	0.06420774
45	0x3ce28981	0.027653458
46	0x3dd983d3	0.106208466
47	0xbe121a20	-0.14267778
48	0x3d81c450	0.06336272
49	0x3b5367a6	0.0032257824
50	0x3da276d7	0.07932823
51	0x3d84b916	0.06480615
52	0xbe188240	-0.14893436
53	0xbd25e95c	-0.040505752
54	0xbe14cec4	-0.14532
55	0x3dbaf896	0.09129445
56	0xbdd57433	-0.10422554
57	0xbc283ec1	-0.010268868
58	0xbd9ea6ef	-0.07746684
59	0xbd469595	-0.048482496
60	0x3b8a3cb6	0.004218663
61	0xbc983004	-0.018577583
62	0xbc3c35fb	-0.011487479
63	0x3de245e7	0.11048489

mlp.4.weight f4 [32, 64]
0	0x3c2b2c67	0.010447598
1	0xbbfe5a53	-0.0077622323
2	0xbc97b8fd	-0.018520826
3	0x3d13a35b	0.03604446
4	0x3d54e42b	0.05197541
5	0xbc630810	-0.013856903
6	0xbda07335	-0.07834474
7	0x3d61fb4b	0.055171292
8	0x3d1015ad	0.03517692
9	0xbdba3a5f	-0.09093165
10	0x3d9fea0e	0.07808314
11	0xbdc01b6f	-0.093802325
12	0xbd6ab69e	-0.057303064
13	0x3e1bbb73	0.15208225
14	0xbd8d632f	-0.069036834
15	0x3bc25be0	0.0059313625
16	0xbc75b1e5	-0.014996027
17	0xbc36c578	-0.011155479
18	0x3d8e057f	0.06934642
19	0x3d400f47	0.04688957
20	0xbcdb6680	-0.026782274
21	0x3d45c1a9	0.04828039
22	0xbd127d27	-0.035763886
23	0xbe15ccea	-0.1462895
24	0xbd3bddeb	-0.045865934
25	0xbd76624f	-0.060152348
26	0x3b8ad134	0.0042363647
27	0x3d31da98	0.043421358
28	0x3d4f4d33	0.050610732
29	0xbdf31e0d	-0.11870966
30	0x3da0cb1c	0.0785124
31	0x3d2ce61e	0.042211644
32	0xbd8bfa0c	-0.06834802
33	0xbd3dd5d1	-0.04634649
34	0xbdba0757	-0.09083431
35	0xbdd7e637	-0.10541957
36	0x3dddc452	0.10828461
37	0x3d82282d	0.06355319
38	0xbd24452c	-0.04010503
39	0x3da4dd0e	0.08049975
40	0xbd5a12dd	-0.053240646
41	0x3d852ffc	0.06503293
42	0xbb87faed	-0.0041497857
43	0x3d9a9adb	0.075490676
44	0xbd6ad2ce	-0.057329945
45	0x3d10cce1	0.035351638
46	0xbdd29f96	-0.10284345
47	0xbd619405	-0.055072803
48	0xbd6ddd36	-0.05807229
49	0x3da76196	0.0817291
50	0xbe0067d5	-0.12539609
51	0xbcbb4d87	-0.022864116
52	0x3d54d8ad	0.05196445
53	0xbdbb9782	-0.09159757
54	0x3c280f45	0.010257547
55	0xbcd50165	-0.026001642
56	0xbd0aed18	-0.033917516
57	0xbc535bc4	-0.012900297
58	0xbe1a2f14	-0.15057021
59	0x3cbd3d72	0.023100588
60	0xbd24c161	-0.040223483
61	0x3d2084d9	0.039189193
62	0x3dac5578	0.08414739
63	0x3dde3b74	0.108511835
64	0xbdd5cfb7	-0.10440009
65	0xbc715b77	-0.01473128
66	0xbd1f635a	-0.03891311
67	0x3dae96e4	0.08524874
68	0x3d4db85c	0.050224647
69	0xbde5cfee	-0.112213
70	0x3d914821	0.070938356
71	0xbbd9861f	-0.006638303
72	0x3b688bf6	0.0035483814
73	0x3ddb94df	0.10721754
74	0x3c6d1e7f	0.014472603
75	0x3d69e523	0.057103287
76	0x3ddbcc2b	0.10732301
77	0xbd85545a	-0.065102294
78	0x3d48b21f	0.048997995
79	0xbd791675	-0.060812432
80	0x3d9fe4c5	0.07807306
81	0xbdd9f6e7	-0.10642796
82	0x3decb786	0.11558442
83	0x3e06f3ce	0.13178942
84	0xbd056d84	-0.032575145
85	0xbe0d5bd5	-0.13804562
86	0x3da6fd33	0.08153763
87	0x3d74216e	0.059602194
88	0x3dd08d1b	0.10183164
89	0x3d0d4f91	0.03449971
90	0x3bdec855	0.006798784
91	0xbde8759d	-0.11350558
92	0xbcee3615	-0.029078523
93	0xbda086b7	-0.07838195
94	0x3dda7cd0	0.10668337
95	0xbd4a0deb	-0.04932968
96	0x3dc68060	0.09692454
97	0x3d614896	0.055000864
98	0xbc0f8318	-0.0087592825
99	0xbd4004f9	-0.046879742
100	0xbd656aed	-0.056010175
101	0x3c27a1eb	0.010231475
102	0x3d8df703	0.06931879
103	0x3db69013	0.08914199
104	0x3d5e56d4	0.054282025
105	0x3bedcd4d	0.00725714
106	0x3d815cce	0.06316529
107	0x3cdce989	0.026966827
108	0x3ca801dd	0.020508701
109	0xbd0d0c3c	-0.034435496
110	0x3da36a60	0.07979274
111	0xbdd75afb	-0.105154
112	0x3b845a56	0.004039089
113	0xbb6acd17	-0.003582781
114	0xbbc51715	-0.0060147145
115	0xbc87a20a	-0.016556758
116	0xbda7de80	-0.081967354
117	0xbb97ca0f	-0.0046322416
118	0x3d1a80c9	0.037720475
119	0x3d2b74c0	0.04185939
120	0xbcaade76	-0.02085803
121	0xbd5f0886	-0.054451488
122	0x3d9ae243	0.07562687
123	0xbd96ecdd	-0.07369397
124	0x3dc34aaf	0.09535729
125	0x3df4b437	0.11948436
126	0xbc010090	-0.007873669
127	0x3bf3b733	0.0074376105
128	0xbdaef51a	-0.08542843
129	0xbdcce0ca	-0.100038126
130	0xbd8a3e30	-0.067501426
131	0xbd0f4620	-0.034978986
132	0xbd0e2f50	-0.03471309
133	0x3d9e99b4	0.0774416
134	0x3d261a7c	0.0405526
135	0xbdba5e40	-0.09100008
136	0xbd35b71c	-0.04436408
137	0xba854c80	-0.0010169894
138	0x3d14ca24	0.03632559
139	0x3c652cc0	0.01398772
140	0xbd4db2d4	-0.050219372
141	0x3dad8b60	0.08473849
142	0x3cd188e8	0.025577977
143	0x3de740ba	0.112916425
144	0xbd989b1c	-0.0745146
145	0xbdd0afa0	-0.10189748
146	0x3d31fd14	0.043454245
147	0x3df1596a	0.117846325
148	0xbdf6e0f8	-0.12054628
149	0x3d885a98	0.066579044
150	0x3da5c18c	0.08093557
151	0xbd527a88	-0.051386386
152	0xbc7bbcb0	-0.015364811
153	0x3c2393c0	0.009983957
154	0xbdc85ad6	-0.097829506
155	0xbd872aa8	-0.06599933
156	0xbdf03a92	-0.117299214
157	0xbdd26816	-0.10273759
158	0x3d8fc3e6	0.070197865
159	0x3de68d6e	0.11257444
160	0x3de2380e	0.11045848
161	0x3d09688c	0.03354697
162	0x3d1591bc	0.036515936
163	0x3cf0ab68	0.029378608
164	0xbd3465f8	-0.044042557
165	0xbdc85c08	-0.097831786
166	0xbdb03ade	-0.08604978
167	0x3dfd6e6e	0.123745784
168	0xbd7be624	-0.061498776
169	0x3d5c5cac	0.053799316
170	0xbdb32448	-0.087471545
171	0x3deeab26	0.11653738
172	0xbd5c0944	-0.053719774
173	0xbd620ac8	-0.055186063
174	0x3d4545ec	0.048162386
175	0x3d828e62	0.063748136
176	0x3d7f3e4c	0.06231527
177	0xbde732a6	-0.11288957
178	0x3cab6580	0.020922422
179	0x3aa29b00	0.0012405813
180	0xbda06d8e	-0.07833396
181	0x3d9e8188	0.0773955
182	0xbc46aa20	-0.012125522
183	0xbc951960	-0.018200576
184	0x3b3047c0	0.0026898235
185	0x3cdb1f78	0.026748404
186	0xbdf5d9be	-0.12004422
187	0xbd888fe2	-0.066680685
188	0xbd808ca8	-0.06276828
189	0xbdd66d36	-0.10470049
190	0x3daf59f8	0.08562082
191	0x3d389f18	0.0450736
192	0x3e03169f	0.12801598
193	0x3d5c0afd	0.053721417
194	0xbcf000ad	-0.029297197
195	0xbd51298e	-0.05106502
196	0xbcaa4a40	-0.020787358
197	0x3dab9b36	0.083792135
198	0x3e05da61	0.13071586
199	0x3d886c13	0.066612385
200	0x3dd52e55	0.10409228
201	0xbaa0fc9b	-0.0012282314
202	0x3de2c90f	0.11073505
203	0x3b425d8d	0.0029657811
204	0xbc0b2383	-0.008492353
205	0x3e0ed43b	0.13948147
206	0xbcefbac7	-0.029263867
207	0x3d5efcc8	0.05444029
208	0xbcf94f46	-0.030433308
209	0xbe15183d	-0.14560027
210	0xbd4b0ccb	-0.049572747
211	0xbdd784e0	-0.10523391
212	0xbdb709be	-0.08937405
213	0x3c6f6ee9	0.014613845
214	0xbdabf6f1	-0.0839671
215	0xbd96093d	-0.07325981
216	0x3c555f03	0.013023141
217	0xbd35d277	-0.044390168
218	0xbd346b08	-0.044047385
219	0x3d91e96b	0.07124599
220	0x3e15105c	0.14557022
221	0x3d8b2b1f	0.06795334
222	0x3d8668ed	0.06562982
223	0x3e15aecd	0.14617462
224	0x3e08e4b3	0.13368492
225	0x3e04c9bd	0.12967582
226	0xbcf26e86	-0.029593717
227	0xbde1daa9	-0.11028034
228	0xbdb119de	-0.08647512
229	0xbc76bac2	-0.015059175
230	0x3d0981f7	0.03357121
231	0xbdb57b24	-0.08861378
232	0x3d2a1a1b	0.041528802
233	0x3d0a4abf	0.03376269
234	0x3d36701b	0.044540506
235	0x3d3f1249	0.046648297
236	0xbdb4d883	-0.08830359
237	0xbdac706a	-0.08419879
238	0xbd67455c	-0.05646263
239	0xbdd72cdf	-0.10506605
240	0x3cce3bf7	0.025175078
241	0x3db34dd5	0.0875508
242	0xbcb48847	-0.022037638
243	0xbca217a2	-0.01978666
244	0x3db6a114	0.08917442
245	0x3e0bdc5e	0.13658282
246	0x3dde9ac0	0.1086936
247	0x3ca1ce9d	0.019751841
248	0x3ce120bd	0.027481431
249	0x3da044cd	0.07825623
250	0x3dde4342	0.10852672
251	0x3d58ed60	0.052960753
252	0xbc9d8d67	-0.019232465
253	0xbdb96fea	-0.09054549
254	0x3d441fb9	0.047881816
255	0x3e02e8b8	0.12784088

mlp.4.bias f4 [32]
0	0x3db48bca	0.08815725
1	0x3d01bc23	0.03167356
2	0xbd66efe0	-0.056381106
3	0xbd9fa9a3	-0.077960275
4	0xbda01b3f	-0.07817697
5	0xbde042c2	-0.10950233
6	0x3cb8670d	0.022510076
7	0x3cbeffa8	0.023315266
8	0xbdc827a9	-0.097731896
9	0xbe08471d	-0.13308378
10	0xbe0fbb9b	-0.1403641
11	0x3dbbda5c	0.09172508
12	0xbd6478cd	-0.055779267
13	0xbda72b7d	-0.081625916
14	0x3dd98ba6	0.10622339
15	0x3d965dcf	0.07342111
16	0x3e0dfa85	0.13865097
17	0xbd4e5a36	-0.050379
18	0xbe2a7cd9	-0.16649188
19	0xbd7bcfa2	-0.06147731
20	0xbd8a6666	-0.06757812
21	0x3db5040f	0.08838665
22	0x3d8e4bb8	0.06948036
23	0xbdb01b07	-0.08598905
24	0xbe345995	-0.17612298
25	0xbe083d90	-0.13304734
26	0xbc760a83	-0.015017155
27	0xbda53fad	-0.08068786
28	0xbde6a587	-0.112620406
29	0xbd20d446	-0.03926494
30	0xbdc47cb7	-0.095941
31	0xbb8252c8	-0.0039771535

fc_out.weight f4 [1, 32]
0	0x3d683382	0.056689747
1	0xbc02a4b1	-0.007973836
2	0x3c56aaed	0.013102275
3	0x3ce95c9f	0.028486548
4	0x3daa334c	0.08310565
5	0xbd7b06e5	-0.061285872
6	0x3d6191d4	0.055070713
7	0x3e6480cc	0.22314757
8	0x3debdc46	0.11516623
9	0xbdac97eb	-0.084274136
10	0x3d71708e	0.05894523
11	0xbda73601	-0.08164597
12	0x3c0a95c8	0.008458562
13	0x3e141b03	0.14463429
14	0xbe07c536	-0.13258824
15	0xb981045c	-0.00024608045
16	0xbdebea54	-0.11519304
17	0xbde86e88	-0.11349207
18	0x3dfa2e55	0.122158684
19	0x3cb2bad9	0.021817612
20	0xbdd53f93	-0.104125164
21	0xbcdd3ce6	-0.027006578
22	0xbdded348	-0.108801425
23	0x3dff69c5	0.12471346
24	0x3d9ac7f9	0.07557673
25	0x3deae5ea	0.11469634
26	0xbd414437	-0.047184195
27	0x3d9a77fc	0.075424165
28	0xbe021302	-0.12702563
29	0x3d11fe81	0.035643104
30	0x3e1e2dc1	0.15447141
31	0xbe042130	-0.12903285
